scripts/ai/yield_model.pth (torch, 128133 bytes, 9 tensors)

lstm.weight_ih_l0 f4 [200, 1]
-0.1997342 0.24596444 0.121258825 0.010264951 0.39234728 -0.48009112 0.29914656 -0.20509501
-0.077331245 0.20632304 -0.12948644 0.12820898 0.5874565 -0.5149745 0.23069258 -0.63060784
-0.44294322 0.17762192 -0.2755648 0.22395894 0.4440828 0.003888319 -0.14978442 -0.1286657
-0.15797596 -0.03211788 -0.06819673 0.13055182 -0.13440497 0.003712935 -0.0276498 0.1880419
0.095491745 0.11919275 -0.86855567 -0.039784264 -0.08973662 -0.21998875 -0.3865258 -0.1958937
-0.06795977 -0.092642665 -0.2426012 -0.018935006 0.36141557 -0.47898573 -0.10865625 0.013470721
-0.15253082 0.2603151 -0.17608649 0.11236355 -0.012862477 0.19656889 0.40432587 -0.5066747
0.1787997 -0.1864882 -0.32844716 0.054545566 -0.0203085 0.074539915 0.6062698 -0.1224282
0.0925167 -0.849585 -0.17043854 -0.039396077 -0.13327762 0.17998251 0.4870573 -0.116252385
0.18372674 -0.36566508 -0.29468817 0.14889061 -0.43366984 0.36444825 -0.19575627 0.03813009
0.19295764 0.4697544 0.1409304 0.26587096 -0.60426396 0.46738192 0.083525665 -0.053669516
-0.32850158 -0.25967446 -0.04666998 0.29630828 0.43326443 0.39377096 0.4243958 -0.3837031
-0.11403612 0.017386653 -0.44467577 0.04582784 0.27393302 -0.29422152 -0.05511823 0.124087006
-0.42180148 0.5822381 0.31579247 0.108798906 0.27838367 0.33992863 -0.41584864 0.27980804
-0.47451085 0.6460948 0.18113872 -0.69869214 -0.48341933 0.38353425 0.5089783 0.4085942
0.38939998 -0.08519287 0.14070125 -0.46106768 -0.3785509 -0.60693634 -0.65887403 -0.15908785
-0.69863445 -0.045324888 -0.079840966 0.5563143 -0.24496597 0.3697626 -0.780524 0.88027596
0.65056676 -0.47326636 -0.36543038 0.6072584 0.6396858 0.7639906 0.77436215 0.2539148
0.4871764 -0.5552557 0.4686439 0.35696578 0.71406734 -0.47152025 -0.03542619 -0.014093583
0.12528272 0.069276154 0.43235826 -0.22831261 0.2911639 -0.49182737 -0.04554901 0.192564
-0.19399834 0.10635484 0.5226354 0.325104 0.22986339 -0.81764305 -0.14336917 0.16290748
-0.1456468 -0.08623241 0.50813 -0.15413845 -0.076519564 0.050619725 -0.24095264 0.39251864
-0.14300035 0.07178651 0.05396964 0.1821004 0.06281428 0.33903906 0.12626852 0.14013663
-0.7373771 0.123899765 0.23465511 -0.44187883 -0.20237423 -0.5347172 0.36822137 0.40340644
0.50361633 0.060546584 0.24677339 0.01240181 -0.15606144 0.45907444 -0.18969971 0.13094547
00000000: 1f87 4cbe 1ade 7b3e 8c56 f83d 532e 283c
00000010: bee1 c83e 81ce f5be bd29 993e 6d04 52be
00000020: d85f 9ebd 5946 533e 1898 04be 3749 033e
00000030: 8d63 163f 5ed5 03bf ad3a 6c3e 846f 21bf
00000040: 74c9 e2be 85e2 353e d416 8dbe 7e55 653e
00000050: d25e e33e 2bd3 7e3b 1661 19be f1c0 03be
00000060: 73c4 21be 0a8e 03bd baaa 8bbd 60af 053e
00000070: 75a1 09be b654 733b d581 e2bc 0e8e 403e
00000080: 2d91 c33d 541b f43d aa59 5ebf d3f4 22bd
00000090: d5c7 b7bd bb44 61be b6e6 c5be 5c98 48be
000000a0: 7e2e 8bbd 70bb bdbd 736c 78be 961d 9bbc
000000b0: 760b b93e 9e3d f5be 2b87 debd 4db4 5c3c
000000c0: 0a31 1cbe 0548 853e 0450 34be dc1e e63d
000000d0: 24bd 52bc 5b49 493e cd03 cf3e 6fb5 01bf
000000e0: 4517 373e c3f6 3ebe 3a2a a8be 2c6b 5f3d
000000f0: 035e a6bc 62a8 983d 7f34 1b3f a3bb fabd
00000100: 6579 bd3d 677e 59bf 7187 2ebe c85d 21bd
00000110: ee79 08be 564d 383e 935f f93e bb15 eebd
00000120: dd22 3c3e 7438 bbbe 5ee1 96be c876 183e
00000130: f909 debe f698 ba3e 5574 48be 4c2e 1c3d
00000140: b096 453e a683 f03e 0f50 103e 3d20 883e
00000150: 0bb1 1abf af4c ef3e 810f ab3d 91d4 5bbd
00000160: 5c31 a8be 0df4 84be 0529 3fbd b8b5 973e
00000170: d6d4 dd3e 599c c93e 684a d93e bc74 c4be
00000180: c58b e9bd 746e 8e3c 8bac e3be f9b5 3b3d
00000190: f340 8c3e 34a4 96be a7c3 61bd 5421 fe3d
000001a0: 5df6 d7be 8e0d 153f 8daf a13e f6d1 de3d
000001b0: 4e88 8e3e 200b ae3e 1dea d4be 0043 8f3e
000001c0: 16f3 f2be 7866 253f 6e7c 393e 7ddd 32bf
000001d0: bd82 f7be 9a5e c43e 674c 023f 4233 d13e
000001e0: 6f5f c73e 9979 aebd fd13 103e 1011 ecbe
000001f0: 6cd1 c1be 2e60 1bbf f8ab 28bf ede7 22be
00000200: b5d9 32bf 97a6 39bd a983 a3bd 9d6a 0e3f
00000210: 5cd8 7abe 8651 bd3e 6cd0 47bf c459 613f
00000220: 8b8b 263f f84f f2be b119 bbbe 4975 1b3f
00000230: 73c2 233f e394 433f 993c 463f 1f01 823e
00000240: 2f6f f93e 3d25 0ebf 18f2 ef3e 38c4 b63e
00000250: 1ecd 363f 1a6b f1be 0d1b 11bd c6e8 66bc
00000260: 1d4a 003e a8e0 8d3d 105e dd3e c8ca 69be
00000270: 6f13 953e ccd0 fbbe 9991 3abd 7f2f 453e
00000280: 80a7 46be 91d0 d93d 6fcb 053f 0874 a63e
00000290: 4f61 6b3e 0e51 51bf 5ecf 12be 38d1 263e
000002a0: 6f24 15be 9e9a b0bd cf14 023f 78d6 1dbe
000002b0: 4ab6 9cbd a156 4f3d 4abc 76be 34f8 c83e
000002c0: af6e 12be ce04 933d 450f 5d3d 8778 3a3e
000002d0: c6a4 803d 8796 ad3e 894c 013e fa7f 0f3e
000002e0: bfc4 3cbf 29bf fd3d 6e49 703e f13d e2be
000002f0: 313b 4fbe 3ae3 08bf 8387 bc3e 4a8b ce3e
00000300: 00ed 003f b2ff 773d 2ab2 7c3e f630 4b3c
00000310: 92ce 1fbe ce0b eb3e a440 42be 9216 063e

lstm.weight_hh_l0 f4 [200, 50]
0.010176948 -0.16733053 -0.038622316 -0.14652261 0.0519748 0.07831135 -0.067569435 0.10497718
0.12213767 -0.1100883 -0.13571495 0.043113686 0.021221684 0.08767099 -0.07621026 -0.044034563
-0.15619577 0.033596236 0.030686079 0.015539262 -0.16058649 -0.08669121 -0.0806603 -0.175286
0.17126633 -0.060983993 0.06537086 0.054721154 0.07199886 -0.15852486 -0.051192727 -0.077301525
0.10689805 -0.0994118 -0.055311196 -0.02971261 -0.040728778 0.091398895 0.08029645 0.103812315
-0.011875896 -0.06616549 -0.21335213 -0.18894137 -0.16764426 -0.09809642 0.08318386 0.036532786
0.029944329 0.0028244196 0.030139793 -0.02982747 -0.022981845 -0.084726684 -0.1124882 0.13196756
-0.016116332 0.16118822 0.027814375 -0.1394881 -0.141771 -0.14392956 0.007242509 -0.022807999
0.08703338 -0.008080511 -0.095008835 -0.040418997 -0.09003199 -0.078755446 -0.13673264 0.027405333
0.011009381 -0.081479535 0.062013857 -0.057212733 -0.059027314 0.018838774 -0.08354182 -0.17844044
0.11609201 -0.11754226 -0.07174587 -0.098728 -0.017094383 0.024007315 0.12635837 -0.013530311
0.003727497 -0.16126555 -0.18090609 0.015931027 -0.16202275 0.04824152 -0.105476424 0.0005274543
-0.018333932 -0.049812607 0.13651195 -0.10515579 -0.018565584 0.0129827615 -0.07224199 0.08502971
0.12558872 0.09231087 0.008248758 -0.054197405 -0.044610515 -0.1614052 -0.10313845 -0.149472
0.17926942 0.09528261 -0.007066751 0.17238933 0.076341495 -0.034956593 0.08159687 0.093087696
0.00640494 -0.060170386 -0.007964229 -0.09542632 0.018708529 0.009327152 -0.14822944 -0.020935193
-0.09737736 -0.028224876 0.050167494 -0.1584891 -0.018700194 -0.068314865 0.059098512 0.02859491
-0.07333249 -0.048765764 -0.09859249 0.02867376 -0.035211924 -0.12599857 0.007552222 0.036431093
-0.08555808 -0.0042268713 -0.15507787 0.06717106 -0.059614457 0.10147084 0.14745286 -0.1594604
-0.07269819 -0.12969919 -0.14624763 0.05996998 -0.02077253 -0.005920658 -0.012673198 0.024568396
-0.15910813 -0.020118691 -0.091612324 0.09411533 0.12750293 0.045612045 -0.0046166275 0.0012122393
-0.047073122 -0.046208143 0.055528894 -0.066776976 0.03342848 -0.07966233 0.10258593 0.02998607
0.038755164 -0.07499743 -0.116944425 -0.16408171 0.0050334274 0.0106884185 0.006054129 0.0015259897
0.11595195 0.08677671 0.15713708 0.14846915 0.017129019 0.044103023 0.14787811 0.1496235
0.19373193 -0.077067934 -0.056815725 -0.0087736 0.08648972 -0.11840205 0.0905783 -0.008812841
-0.032555234 -0.13314006 -0.01987671 -0.06637944 -0.027294243 -0.017658116 0.055303205 -0.014163611
-0.021891661 -0.16491897 -0.19112472 -0.19578551 0.014912564 0.17902865 0.17183168 -0.0397775
0.039061937 -0.114596546 0.18775323 -0.029292196 -0.07208723 0.09859799 0.0043141935 0.02370073
0.06913689 -0.12842247 -0.18058537 -0.02943647 -0.044793416 -0.1509403 0.14500135 0.1627807
-0.18722032 0.051141683 0.031116456 -0.20183572 0.08239482 0.11225477 -0.030631663 -0.14636566
0.053685453 0.048117038 -0.04667164 0.01300377 -0.09626032 -0.12975706 -0.11303297 0.036621176
-0.008356971 -0.10073175 0.045166064 0.08791114 0.102198415 0.0473898 0.06622943 0.043545846
00000000: 37bd 263c b258 2bbe 6f32 1ebd 060a 16be
00000010: 87e3 543d b361 a03d d861 8abd 47fe d63d
00000020: 5123 fa3d fa75 e1bd dcf8 0abe fa97 303d
00000030: 19d9 ad3c d98c b33d 2014 9cbd 965d 34bd
00000040: c9f1 1fbe 359c 093d 5f61 fb3c 6498 7e3c
00000050: c970 24be 298b b1bd 3a31 a5bd 2c7e 33be
00000060: 7160 2f3e 5aca 79bd 28e1 853d 4a23 603d
00000070: 2374 933d 5754 22be 77af 51bd 4350 9ebd
00000080: 5ded da3d 6a98 cbbd fe8d 62bd dc67 f3bc
00000090: 38d3 26bd 582f bb3d 7772 a43d 8d9b d43d
000000a0: 1e93 42bc c681 87bd fb78 5abe d979 41be
000000b0: f0aa 2bbe c7e6 c8bd 4d5c aa3d 67a3 153d
000000c0: cf4d f53c e619 393b bae7 f63c bd58 f4bc
000000d0: 6c44 bcbc 2f85 adbd 3760 e6bd 8122 073e
000000e0: 6606 84bc 860e 253e f9da e33c f8d5 0ebe
000000f0: 6b2c 11be 4562 13be 9252 ed3b d7d7 babc
00000100: 8f3e b23d 1f64 04bc fe93 c2bd 648e 25bd
00000110: b162 b8bd 894a a1bd a403 0cbe 2681 e03c
00000120: b160 343c bede a6bd 3e02 7e3d e657 6abd
00000130: a0c6 71bd c653 9a3c f917 abbd 17b9 36be
00000140: a6c1 ed3d ffb9 f0bd 80ef 92bd e831 cabd
00000150: 8509 8cbc fdaa c43c 1764 013e 3dae 5dbc
00000160: 0649 743b cc22 25be 723f 39be c981 823c
00000170: 4be9 25be e698 453d 0604 d8bd dc44 0a3a
00000180: 0b31 96bc 4e08 4cbd cac9 0b3e eb5b d7bd
00000190: da16 98bc a6b5 543c 9cf3 93bd 0e24 ae3d
000001a0: 549a 003e 7b0d bd3d cc25 073c 19fe 5dbd
000001b0: 84b9 36bd 6847 25be 403a d3bd 300f 19be
000001c0: 6792 373e 8723 c33d 3490 e7bb d486 303e
000001d0: ee58 9c3d a52e 0fbd 431c a73d c3a4 be3d
000001e0: 88e0 d13b 3975 76bd 667c 02bc e06e c3bd
000001f0: a142 993c e9d0 183c 75c9 17be 4880 abbc
00000200: c86d c7bd db37 e7bc 6e7c 4d3d f74a 22be
00000210: 2631 99bc aae8 8bbd 4811 723d df3f ea3c
00000220: 582f 96bd 9cbe 47bd dcea c9bd 3ce5 ea3c
00000230: 613a 10bd c505 01be a178 f73b c538 153d
00000240: 1339 afbd 9181 8abb bccc 1ebe fb90 893d
00000250: 4a2e 74bd f2cf cf3d e2fd 163e 9649 23be
00000260: cae2 94bd ddcf 04be f0c1 15be 15a3 753d
00000270: 272b aabc 1402 c2bb 3fa3 4fbc a943 c93c
00000280: 3eed 22be f4cf a4bc 3e9f bbbd 8abf c03d
00000290: 2190 023e b2d3 3a3d 1447 97bb 00e4 9e3a
000002a0: bfcf 40bd c044 3dbd 4472 633d 5ec2 88bd
000002b0: 4dec 083d 0126 a3bd 9218 d23d 59a5 f53c
000002c0: bcbd 1e3d 4198 99bd 8f80 efbd 0905 28be
000002d0: 73ef a43b 7a1e 2f3c b761 c63b b803 c83a
000002e0: 3778 ed3d fdb7 b13d 8be8 203e 4c08 183e
000002f0: 2852 8c3c 5fa5 343d 5c6d 173e e736 193e
00000300: aa61 463e cbd5 9dbd 9bb7 68bd 25bf 0fbc
00000310: 8621 b13d c67c f2bd 1e81 b93d bc63 10bc
00000320: a358 05bd de55 08be 7bd4 a2bc f2f1 87bd
00000330: 2d98 dfbc c1a7 90bc 9d85 623d 7e0e 68bc
00000340: 2456 b3bc 85e0 28be 33b6 43be ff7b 48be
00000350: d453 743c 4953 373e a5f4 2f3e bbed 22bd
00000360: 69ff 1f3d 98b1 eabd 6242 403e 30f6 efbc
00000370: 78a2 93bd beed c93d 145e 8d3b 0928 c23c
00000380: a497 8d3d 2e81 03be 5feb 38be c024 f1bc
00000390: 4d79 37bd 1890 1abe 3c7b 143e fcaf 263e
000003a0: afb6 3fbe f179 513d f0e7 fe3c 06ae 4ebe
000003b0: 9ebe a83d d4e5 e53d 41ef fabc e1e0 15be
000003c0: 47e5 5b3d 5f16 453d c32a 3fbd c40d 553c
000003d0: 2124 c5bd 09df 04be d47d e7bd 1600 163d
000003e0: adeb 08bc 734c cebd 0d00 393d c10a b43d
000003f0: 674d d13d cf1b 423d 4ca3 873d 215d 323d

lstm.bias_ih_l0 f4 [200]
-0.109801464 -0.18019222 -0.07740635 0.07287429 -0.10022134 0.007891162 -0.056612268 -0.24095637
0.012260093 -0.015444462 0.04626103 -0.088747315 -0.17888151 -0.09148778 -0.117144555 -0.06819214
-0.18953344 -0.10079896 -0.07205138 0.012635967 -0.12728427 -0.040420197 -0.1828719 0.09795746
-0.15912932 0.028095093 0.05853781 -0.14696825 -0.080509424 -0.038801588 0.017557152 -0.07146695
-0.07781552 -0.028791007 -0.14078858 -0.06712198 -0.056178074 -0.07522346 0.056120988 -0.06519245
-0.054869417 -0.14836454 -0.114346445 0.005568297 -0.012878589 0.12411108 -0.10055301 0.04906808
0.03567878 -0.004526728 0.0714185 -0.08019913 0.038991116 -0.08344111 -0.06877431 -0.07601869
0.0001688002 -0.22518577 0.030205045 0.06940248 -0.014995481 -0.04068409 -0.10343284 -0.11357837
-0.07332473 -0.1885458 -0.059764594 -0.09295205 -0.14188747 0.017604493 -0.109364904 -0.13949153
0.08814872 0.009958752 0.009286952 0.04149892 -0.042586263 -0.09128449 -0.1762457 0.008745811
0.06430969 -0.12114269 0.02241559 -0.21440206 0.026994623 -0.08106867 0.016623484 0.0044015534
0.07492467 -0.18579905 -0.1489619 -0.19635652 -0.20974797 -0.09508794 -0.012901709 -0.009058622
-0.024351897 0.04867223 0.07348289 -0.10837722 -0.050548844 -0.04002176 0.05463406 -0.027748046
0.01185732 -0.14658871 0.032754026 -0.043613646 -0.1197214 -0.007361353 0.026086042 0.06593701
0.04775744 -0.01916921 -0.020813141 0.12580049 0.06214366 0.07534318 0.016358972 0.0054283966
0.09675879 -0.047624208 0.08034842 0.039977152 0.0955577 0.056220047 0.04828863 -0.10776476
0.015794462 -0.061195415 -0.06419669 0.03879415 0.03395654 -0.035569936 0.067664884 -0.018213572
0.018762408 0.0425422 0.11766168 0.0072393697 0.028919047 0.0056917625 -0.120619915 0.10573361
-0.023917867 0.13507804 -0.015964087 0.07998324 -0.09914169 -0.05934719 0.09932828 0.07003787
-0.09905233 -0.078185014 -0.07869181 0.06629624 -0.066223465 -0.024311747 -0.15489501 -0.16568808
-0.10244235 -0.12727216 -0.14098044 0.0046423087 -0.01128491 0.08665575 -0.06740507 -0.14988257
0.039844092 -0.21275444 -0.14270261 -0.0850189 0.0008301265 -0.12017154 -0.11440735 -0.13032548
0.011890726 -0.19239254 -0.10371836 -0.006578992 0.07099868 -0.045518514 0.0021039562 -0.20787835
-0.15685238 0.09417437 -0.06754143 -0.15724993 -0.04592116 -0.05286491 -0.016110182 -0.048401803
0.029330581 -0.028358318 0.05063276 -0.09933639 -0.11296473 0.012840409 0.068816975 0.039981045
00000000: 97df e0bd 4f84 38be 3887 9ebd 1e3f 953d
00000010: d940 cdbd ef49 013c 44e2 67bd 44bd 76be
00000020: 8fde 483c c50a 7dbc 357c 3d3d 27c1 b5bd
00000030: b72c 37be f25d bbbd 7ce9 efbd 52a8 8bbd
00000040: 0e15 42be af6f cebd ad8f 93bd 1607 4f3c
00000050: cf56 02be a68f 25bd c542 3bbe ec9d c83d
00000060: ccf2 22be ae27 e63c 58c5 6f3d d87e 16be
00000070: 20e2 a4bd 6aee 1ebd 04d4 8f3c 445d 92bd
00000080: be5d 9fbd 1edb ebbc e22a 10be 4077 89bd
00000090: fb1a 66bd c20e 9abd 1fdf 653d 9f83 85bd
000000a0: c1be 60bd e0ec 17be 782e eabd 4376 b63b
000000b0: b800 53bc f32d fe3d bdee cdbd 9cfb 483d
000000c0: ea23 123d f254 94bb dd43 923d 713f a4bd
000000d0: 26b5 1f3d 2ce3 aabd 8cd9 8cbd b0af 9bbd
000000e0: f5ff 3039 1997 66be 9270 f73c e322 8e3d
000000f0: 9baf 75bc 5ca4 26bd 99d4 d3bd c79b e8bd
00000100: 472b 96bd 2612 41be b8cb 74bd a55d bebd
00000110: f34a 11be 4c37 903c b5fa dfbd ded6 0ebe
00000120: 5187 b43d 092a 233c 4d28 183c c6fa 293d
00000130: ef6e 2ebd 5df3 babd c179 34be 974a 0f3c
00000140: ccb4 833d a919 f8bd e6a0 b73c 378c 5bbe
00000150: d423 dd3c 5507 a6bd f92d 883c e83a 903b
00000160: 1b72 993d 1b42 3ebe 7889 18be af11 49be
00000170: 2cc8 56be 77bd c2bd b161 53bc 9d6a 14bc
00000180: a17d c7bc 885c 473d 337e 963d e0f4 ddbd
00000190: 4e0c 4fbd dbed 23bd f7c7 5f3d df4f e3bc
000001a0: 3445 423c 5a1b 16be 1629 063d 39a4 32bd
000001b0: 7e30 f5bd 8137 f1bb 65b2 d53c fc09 873d
000001c0: 4e9d 433d bf08 9dbc 5280 aabc d8d1 003e
000001d0: 5a8a 7e3d 864d 9a3d 4003 863c b1e0 b13b
000001e0: 7929 c63d 9a11 43bd b68d a43d 15bf 233d
000001f0: c1b3 c33d fe46 663d 4cca 453d c5b3 dcbd
00000200: 6363 813c 0ba8 7abd 8e79 83bd 9de6 1e3d
00000210: 0316 0b3d c8b1 11bd e393 8a3d a134 95bc
00000220: 9fb3 993c bb40 2e3d 9bf8 f03d 3c38 ed3b
00000230: a3e7 ec3c f781 ba3b 9307 f7bd dd8a d83d
00000240: 67ef c3bc e651 0a3e 1ec7 82bc 41ce a33d
00000250: cc0a cbbd 0a16 73bd a06c cb3d 0470 8f3d
00000260: f3db cabd 771f a0bd 2c29 a1bd 53c6 873d
00000270: 2ba0 87bd 6e29 c7bc cc9c 1ebe 23aa 29be
00000280: 4bcd d1bd a253 02be 2d5d 10be 821e 983b
00000290: 58e4 38bc 9278 b13d ab0b 8abd d17a 19be
000002a0: 8f33 233d 4ddc 59be a220 12be 641e aebd
000002b0: d99c 593a 7f1c f6bd 674e eabd 0b74 05be
000002c0: 52d1 423c 8d02 45be 4b6a d4bd 9694 d7bb
000002d0: c267 913d 9f71 3abd 87e2 093b 10de 54be
000002e0: e99d 20be 7ede c03d 2953 8abd 2006 21be
000002f0: d417 3cbd e088 58bd 80f9 83bc f840 46bd
00000300: b046 f03c b44f e8bc 4c64 4f3d e170 cbbd
00000310: 0d5a e7bd 9460 523c eaef 8c3d 2ac3 233d

lstm.bias_hh_l0 f4 [200]
-0.1007672 -0.0960044 0.09460321 0.05038768 -0.08976213 0.024759727 -0.04662721 -0.046520803
0.114597484 -0.11420484 -0.12226172 0.02485674 -0.012381997 -0.13460064 -0.16054936 -0.003353562
-0.064227186 -0.112590514 0.11115425 -0.21506321 -0.124032184 -0.07171118 0.026696548 -0.13679245
-0.008099927 0.05884696 0.13158788 0.0046601268 0.013454229 0.09833759 0.030256713 -0.21417414
-0.16055897 -0.07248303 -0.15649049 0.07786791 -0.10951673 -0.086407386 -0.080694176 0.054611817
0.09376212 0.0005266626 -0.028037589 -0.15129179 -0.16951147 -0.0051318407 -0.040790398 -0.052054368
0.015556045 -0.094319694 0.06592771 -0.16035901 -0.025478825 0.002283156 -0.04808979 0.12560615
-0.10510736 -0.07140416 -0.10004094 0.022580352 -0.0027040376 0.00052125717 -0.15485798 -0.04982622
-0.18622799 -0.04954387 0.00574627 0.08854539 -0.078448094 0.03273993 -0.1786039 -0.05667976
-0.15373513 0.07352276 -0.16011235 -0.048729315 0.07474586 -0.22604147 -0.19636889 0.06623735
-0.064629875 -0.21322392 -0.08628792 -0.0911536 -0.040368076 -0.07981011 -0.15769182 -0.14200455
0.109784655 -0.17583941 -0.005263261 -0.1538309 -0.032333296 -0.0033993912 -0.070963584 -0.074359745
-0.13988125 -0.0627824 0.09353832 -0.16890298 -0.036431063 0.012057276 0.008255863 0.03428537
-0.06193447 -0.03567106 0.037302054 -0.062272493 0.019528866 0.056863055 0.049658768 -0.0495237
-0.098912 0.0068222457 -0.014894893 -0.068313785 0.05797036 0.047044914 -0.07476765 0.1050582
-0.039533015 0.11615176 -0.08791545 0.11782838 -0.104094066 -0.04829797 0.091122694 -0.0024089564
0.07468729 0.10530856 -0.08755122 0.0061351852 -0.051596068 0.053843565 -0.004087327 0.06706256
-0.020947265 0.0406268 -0.033075944 0.0059820986 -0.055964228 -0.01045435 0.121666566 -0.094250865
0.08351208 0.08768104 0.040882803 0.09535641 -0.03059543 0.042889837 -0.17332152 -0.05178694
-0.08773456 -0.05867759 -0.22358528 0.099094726 0.037051912 -0.07198497 -0.0068561556 -0.0986041
-0.18187402 -0.13117523 -0.11364161 -0.019263763 -0.21893479 -0.10769583 -0.12357695 0.0029602824
0.015315153 -0.031472743 -0.192543 -0.21087499 -0.020062987 -0.12983435 -0.11095918 0.027231177
-0.12937887 -0.017297277 -0.049061693 0.08935804 0.07813625 -0.026388805 -0.1529348 -0.12911297
-0.09839446 0.07153351 -0.027664933 0.029500654 -0.11785314 -0.020829761 0.07684048 -0.15684922
0.034429483 -0.09076012 -0.14923054 0.023349596 0.044527795 -0.07801972 0.035746958 -0.18208061
00000000: 095f cebd f49d c4bd 54bf c13d 5063 4e3d
00000010: 35d5 b7bd e9d4 ca3c 2cfc 3ebd 998c 3ebd
00000020: 16b2 ea3d 3ae4 e9bd 5a64 fabd 5da0 cb3c
00000030: dcdd 4abc c0d4 09be 0d67 24be 6fc7 5bbb
00000040: 8b89 83bd db95 e6bd d7a4 e33d 8839 5cbe
00000050: 9604 febd 50dd 92bd b8b2 da3c 5213 0cbe
00000060: 8eb5 04bc 8309 713d f9be 063e fab3 983b
00000070: 206f 5c3c 3865 c93d eddc f73c 7750 5bbe
00000080: 9269 24be fc71 94bd 0b3f 20be 3679 9f3d
00000090: 4f4a e0bd 5bf6 b0bd fd42 a5bd a4b0 5f3d
000000a0: 5b06 c03d bb0f 0a3a 16af e5bc 3cec 1abe
000000b0: 6a94 2dbe 0029 a8bb d513 27bd f636 55bd
000000c0: c8de 7e3c af2a c1bd 1b05 873d 2735 24be
000000d0: f8b8 d0bc 00a1 153b cdf9 44bd e69e 003e
000000e0: 8742 d7bd 583c 92bd 44e2 ccbd 6efa b83c
000000f0: 3936 31bb faa4 083a 1793 1ebe 9416 4cbd
00000100: 8db2 3ebe 83ee 4abd 354b bc3b 4957 b53d
00000110: 65a9 a0bd 4e1a 063d f1e3 36be 0929 68bd
00000120: be6c 1dbe 1a93 963d 7ef4 23be 6498 47bd
00000130: 5c14 993d 6a77 67be ed14 49be 73a7 873d
00000140: ab5c 84bd 5f57 5abe b9b7 b0bd bdae babd
00000150: ff58 25bd 7c73 a3bd f779 21be a469 11be
00000160: c7d6 e03d 3f0f 34be 6f77 acbb d985 1dbe
00000170: eb6f 04bd 52c8 5ebb 5b55 91bd ec49 98bd
00000180: 083d 0fbe 0f94 80bd 0591 bf3d e7f4 2cbe
00000190: bd38 15bd e28b 453c 9943 073c d16e 0c3d
000001a0: 00af 7dbd d11b 12bd 0aca 183d 7111 7fbd
000001b0: 00fb 9f3c 3ce9 683d fe66 4b3d 5dd9 4abd
000001c0: 6092 cabd 258d df3b b609 74bc 19e8 8bbd
000001d0: 5472 6d3d 2bb2 403d c81f 99bd c128 d73d
000001e0: 5fed 21bd f9e0 ed3d 040d b4bd 0150 f13d
000001f0: 452f d5bd 18d4 45bd 899e ba3d 95df 1dbb
00000200: a6f5 983d 04ac d73d 0e4e b3bd aa09 c93b
00000210: 6656 53bd 128b 5c3d fcee 85bb 1858 893d
00000220: 9999 abbc 4a68 263d a47a 07bd 7b05 c43b
00000230: bf3a 65bd b948 2bbc 522c f93d 9906 c1bd
00000240: 6208 ab3d 1e92 b33d ba74 273d 394a c33d
00000250: 44a3 fabc 41ad 2f3d 327b 31be 8b1e 54bd
00000260: 2dae b3bd ea57 70bd 8af3 64be 2df2 ca3d
00000270: bfc3 173d db6c 93bd 9aa9 e0bb f2f0 c9bd
00000280: 2f3d 3abe cd52 06be efbc e8bd 0acf 9dbc
00000290: 7130 60be a28f dcbd e915 fdbd 4c01 423b
000002a0: 68ec 7a3c 90e9 00bd fe29 45be 9def 57be
000002b0: 225b a4bc 4cf3 04be 913e e3bd eb13 df3c
000002c0: e57b 04be 05b3 8dbc eaf4 48bd 5901 b73d
000002d0: e605 a03d 562d d8bc f19a 1cbe 3136 04be
000002e0: 0983 c9bd 2980 923d 92a1 e2bc 5bab f13c
000002f0: fd5c f1bd 2da3 aabc 8b5e 9d3d 159d 20be
00000300: ee05 0d3d 71e0 b9bd e4cf 18be a747 bf3c
00000310: c762 363d cec8 9fbd 676b 123d 5773 3abe

lstm.weight_ih_l1 f4 [200, 50]
0.036981877 -0.0060148737 0.014246954 -0.037789863 -0.008230074 -0.0021208385 -0.1379786 -0.020583877
0.11994403 -0.064728774 0.011800943 -0.06524811 -0.03809107 0.15500754 0.14795825 0.12934652
-0.12878251 0.047947675 0.07332287 -0.045576468 -0.09157057 -0.036038514 0.08417989 0.034196764
-0.05842447 0.06345081 -0.15589671 0.019787587 0.053865068 0.027022967 0.14375286 -0.0869838
-0.10993425 -0.03205902 -0.042088903 -0.15123853 -0.050217547 0.15494734 0.04055748 0.019480666
-0.14681132 -0.069121204 -0.100753054 -0.09568339 0.034301784 -0.0017170004 0.0004996985 -0.10585769
0.039530832 -0.09650196 0.016927117 -0.11296921 0.04812516 -0.16021179 0.06738188 0.04315742
-0.1055879 0.095800154 -0.03440134 -0.16015527 -0.1879763 -0.15952836 0.11606559 0.025475876
0.006914308 0.117778055 0.0740182 -0.14391293 0.12300336 -0.02071739 -0.14298868 -0.027769417
0.05193585 -0.10300342 0.052546784 0.09599172 0.04789926 -0.021557055 -0.13961664 -0.103603356
0.01210957 0.051060133 -0.04758073 0.089730665 0.16304144 0.025727049 0.121032774 -0.053418808
-0.027558202 0.0995309 -0.07541403 -0.028582005 -0.08677036 -0.20310193 -0.1619526 -0.1723774
-0.014315653 -0.062144462 0.0049787583 -0.12876293 -0.05156475 0.031205729 0.11340124 -0.12525436
0.15644112 0.123035066 -0.18449487 -0.027386175 0.037882634 0.10857107 -0.0635052 -0.053506862
0.060948387 0.02155171 0.09003889 -0.0028677946 -0.07779304 -0.021932973 0.060385473 -0.056180686
-0.12675099 -0.039534803 -0.111610234 0.05418172 -0.07765291 -0.033318944 0.06954882 0.07850938
-0.07110944 0.0077192145 -0.12579161 0.03232276 0.035428047 0.06628124 0.15630731 -0.0475148
-0.050952837 0.083281696 -0.08261063 0.14851429 0.01306325 -0.04043255 -0.1649655 0.0065781604
-0.07657557 -0.10260516 0.052692667 -0.002650997 0.009695749 0.05832773 -0.04770792 -0.096221566
-0.17982247 0.012505358 -0.16896325 0.137512 0.057623066 -0.10840933 0.22294626 -0.0940421
-0.0915509 -0.13150418 0.06730293 0.0017868797 0.17080237 -0.028724516 -0.06989883 -0.19891933
0.03506295 0.14852153 -0.059745666 0.14257711 -0.20780872 0.042132918 0.094958834 0.0067444313
-0.010706328 0.03308017 0.008264697 0.017234864 0.024201978 -0.004564899 -0.16955175 0.15140924
0.17063457 -0.16785184 0.20609012 -0.02286683 -0.0010976992 -0.21686722 0.040342394 0.021601068
0.016077558 -0.1304775 -0.015775375 -0.10789229 -0.040482976 -0.024513563 0.20851912 -0.059647962
0.16715764 -0.052128013 0.0006745947 -0.011594811 -0.121295474 -0.04773896 -0.08750744 0.10764456
-0.055056006 0.07434269 -0.09513087 -0.00145676 -0.037337046 -0.12801942 -0.07941085 -0.09506252
0.10575659 0.08292085 0.011149805 0.078662276 0.0019379888 0.0011007773 -0.13419296 -0.008912151
-0.06781636 0.16163166 0.043855794 0.16394639 -0.1372496 0.082765535 0.039436962 -0.12144998
-0.060084924 0.09925035 0.061805516 0.03282358 0.06948008 0.06335159 0.04542537 -0.050196696
0.07307487 -0.122589596 -0.17611705 -0.1471254 0.04984477 -0.028385984 0.064825654 -0.12367092
-0.06751011 0.015939986 0.033653688 -0.045178153 -0.043659046 -0.14027187 -0.07787445 0.02347303
00000000: 4f7a 173d 6b18 c5bb 0e6c 693c 8bc9 1abd
00000010: 6fd7 06bc c4fd 0abb 434a 0dbe 859f a8bc
00000020: 37a5 f53d 8590 84bd be58 413c cda0 85bd
00000030: 6205 1cbd 4cba 1e3e 5e82 173e 6a73 043e
00000040: 90df 03be c864 443d 4d2a 963d 64ae 3abd
00000050: 5a89 bbbd 1f9d 13bd 8266 ac3d e811 0c3d
00000060: 7f4e 6fbd 80f2 813d 63a3 1fbe 9419 a23c
00000070: 9ea1 5c3d 455f dd3c f333 133e 9024 b2bd
00000080: 3525 e1bd 5250 03bd 6a65 2cbd 46de 1abe
00000090: eab0 4dbd 84aa 1e3e 9a1f 263d eb95 9f3c
000000a0: b555 16be 6b8f 8dbd 9e57 cebd a7f5 c3bd
000000b0: 0780 0c3d f90c e1ba 33fe 023a ebcb d8bd
000000c0: 15eb 213d d2a2 c5bd bdaa 8a3c 675c e7bd
000000d0: e31e 453d 8f0e 24be 83ff 893d d6c5 303d
000000e0: 783e d8bd df32 c43d 6be8 0cbd beff 23be
000000f0: dc7c 40be 675b 23be ccb3 ed3d c9b2 d03c
00000100: 6b91 e23b 9f35 f13d db96 973d e95d 13be
00000110: 30e9 fb3d 84b7 a9bc a06b 12be b07c e3bc
00000120: b0ba 543d 75f3 d2bd 4c3b 573d 4f97 c43d
00000130: 0432 443d 6c98 b0bc aaf7 0ebe ff2d d4bd
00000140: 3867 463c 6e24 513d 03e4 42bd b6c4 b73d
00000150: 56f4 263e 88c1 d23c 08e0 f73d aecd 5abd
00000160: bdc1 e1bc dbd6 cb3d ac72 9abd cf24 eabc
00000170: a9b4 b1bd f4f9 4fbe e7d6 25be b383 30be
00000180: 338c 6abc 318b 7ebd da24 a33b 6eda 03be
00000190: 8f35 53bd 28a3 ff3c e93e e83d ae42 00be
000001a0: 1a32 203e cff9 fb3d 39ec 3cbe f958 e0bc
000001b0: d22a 1b3d 825a de3d 040f 82bd 032a 5bbd
000001c0: 04a5 793d 368d b03c 4f66 b83d 9cf1 3bbb
000001d0: f551 9fbd c7ac b3bc c256 773d b81d 66bd
000001e0: 03cb 01be 3fef 21bd e893 e4bd a7ed 5d3d
000001f0: 7d08 9fbd 7279 08bd 9d6f 8e3d 87c9 a03d
00000200: d3a1 91bd 77f1 fc3b 84cf 00be df64 043d
00000210: 001d 113d 75be 873d 060f 203e e19e 42bd
00000220: ecb3 50bd 988f aa3d c32f a9bd 2114 183e
00000230: 3e07 563c 9a9c 25bd b7ec 28be 9c8d d73b
00000240: a7d3 9cbd a722 d2bd 44d4 573d 59bc 2dbb
00000250: ebda 1e3c 0fe9 6e3d 6169 43bd d00f c5bd
00000260: 6223 38be 46e3 4c3c b404 2dbe f2cf 0c3e
00000270: 2a06 6c3d b605 debd 064c 643e 2599 c0bd
00000280: 0a7f bbbd 08a9 06be 1ed6 893d bc35 ea3a
00000290: d1e6 2e3e ad4f ebbc 1e27 8fbd 82b1 4bbe
000002a0: 2b9e 0f3d 0716 183e dfb7 74bd bcff 113e
000002b0: cfcb 54be 9193 2c3d c779 c23d 6400 dd3b
000002c0: 9869 2fbc 137f 073d a768 073c 2130 8d3c
000002d0: 3a43 c63c 2695 95bb f99e 2dbe 060b 1b3e
000002e0: d4ba 2e3e 5ae1 2bbe 4a09 533e 3853 bbbc
000002f0: ace0 8fba 7112 5ebe 113e 253d b9f4 b03c
00000300: 15b5 833c e59b 05be 5c3b 81bc a2f6 dcbd
00000310: 7ad1 25bd abd0 c8bc 0986 553e 6c51 74bd
00000320: 5f2b 2b3e 2f84 55bd 49d7 303a 2af8 3dbc
00000330: c369 f8bd ed89 43bd 1a37 b3bd c074 dc3d
00000340: 6882 61bd fb40 983d f9d3 c2bd c1f0 beba
00000350: bbee 18bd 8617 03be 28a2 a2bd 23b0 c2bd
00000360: e996 d83d 68d2 a93d acad 363c b019 a13d
00000370: 1d04 fe3a f547 903a e169 09be 4504 12bc
00000380: 4ee3 8abd c582 253e 22a2 333d 90e1 273e
00000390: 298b 0cbe fa80 a93d a788 213d c4ba f8bd
000003a0: 9c1b 76bd c443 cb3d c827 7d3d 0572 063d
000003b0: 924b 8e3d 7abe 813d f40f 3a3d 0d9b 4dbd
000003c0: 47a8 953d 4110 fbbd 0758 34be 0aa8 16be
000003d0: 082a 4c3d b989 e8bc 50c3 843d 2e47 fdbd
000003e0: be42 8abd 9394 823c 73d8 093d ba0c 39bd
000003f0: d4d3 32bd 6ea3 0fbe a47c 9fbd 834a c03c

lstm.weight_hh_l1 f4 [200, 50]
-0.03146627 -0.03938119 -0.06456571 0.059326157 -0.0747834 -0.06753409 -0.08689388 -0.05173847
0.031190783 -0.078617126 0.0022241308 0.13343386 -0.040984627 0.013500733 0.044168293 0.11872093
-0.023377635 -0.019555325 0.14029771 0.05840354 0.00679985 0.13555373 0.032086346 0.034146994
-0.15026169 -0.10505958 -0.03700843 -0.18200709 0.18114936 0.117535636 -0.014228421 -0.108069964
-0.120803505 -0.009947474 0.16610855 -0.000848118 -0.1542434 -0.05869175 0.0152028175 -0.017283237
0.1274455 -0.024609104 -0.0030677917 0.17230396 0.079116546 -0.042824294 -0.028704308 -0.083069615
0.08436908 -0.021433624 0.020753011 0.149587 0.0024891815 0.005246877 -0.014786559 0.032290727
-0.047239363 0.06255241 0.076782614 0.0652202 0.07297268 0.18927528 -0.011842241 0.02994454
-0.14468528 0.16141321 -0.07557138 -0.16172566 -0.016511943 0.018958338 -0.11147553 0.1852281
0.016626071 -0.17944154 0.009750551 0.08611515 0.17358209 -0.021127673 0.19196196 0.06986047
-0.11171266 -0.040706176 -0.16366915 -0.044290453 0.014112057 0.12912571 -0.03754535 -0.020538678
-0.004125351 0.038781058 0.090526946 0.17011216 -0.1383045 0.061423276 0.111304246 0.13841441
0.04617404 0.015523433 0.15098006 -0.13602617 0.094994284 -0.0069954833 -0.03928107 -0.0606344
0.1424448 -0.12762482 -0.12130223 -0.09743058 0.101261385 -0.060300462 -0.02123681 0.027810276
0.0007588816 0.07194307 0.039568905 0.06789196 0.02062373 -0.09606549 -0.023900049 -0.14003316
0.049322 0.089058876 -0.03811366 -0.00994458 0.080423005 0.027770136 0.0665426 -0.032275856
0.14953046 0.1441425 -0.18073814 0.012143816 -0.049057696 -0.13079548 0.051935278 0.032201584
-0.1855012 -0.1062728 -0.01517776 -0.061484307 0.1490297 0.043516427 -0.15144035 0.12455636
-0.027057933 -0.118311904 -0.10971591 0.020008449 -0.08283343 0.014512634 -0.05062542 0.18573539
0.06401613 -0.0845858 0.116732225 -0.027598789 0.022392865 0.05163092 -0.21844181 -0.14301395
0.07167195 0.13455418 0.16683201 -0.025468789 -0.17896388 0.12842664 -0.017365204 0.0428732
0.0012283629 -0.09513985 -0.038927842 -0.02886069 0.10990752 0.004115454 -0.11484196 0.018603534
0.19299358 -0.14270023 -9.568221e-05 0.1784105 -0.012635718 -0.13587002 0.06966621 0.13206698
0.021071382 -0.061154507 -0.02724912 0.030797858 0.0480315 0.021012899 0.19776829 0.053149648
-0.13346472 0.08378214 0.22888623 0.12841897 0.08921166 0.12207573 -0.16354313 -0.21839163
0.09744221 -0.088809736 0.06911019 0.07983776 -0.09282228 -0.07720072 -0.09004219 -0.05449186
-0.0065965476 -0.086797595 -0.027552929 0.10297473 -0.08644523 0.12264617 0.09513405 -0.012102701
0.005711906 0.051356558 -0.008768184 -0.11546429 -0.20525189 -0.06734896 0.09448701 0.03935844
0.017506588 -0.100566365 0.039766394 0.016831107 0.095243774 0.031490088 -0.11526452 -0.09697903
-0.09023305 0.08399429 0.14435115 -0.026072228 -0.15019949 -0.19128288 -0.098873265 0.0012491551
0.18271583 -0.011276466 0.025638811 0.11695976 -0.117074706 0.05015239 0.051304016 0.027160252
0.030051226 0.051153842 0.011449493 -0.02933176 0.002713585 -0.056209214 0.0077762078 0.021902664
00000000: c7e2 00bd 2c4e 21bd 073b 84bd fcff 723d
00000010: 0a28 99bd 504f 8abd 6bf5 b1bd b8eb 53bd
00000020: d083 ff3c 0402 a1bd b9c2 113b e3a2 083e
00000030: 7fdf 27bd 2e32 5d3c d0e9 343d f523 f33d
00000040: 7482 bfbc 7d32 a0bc 34aa 0f3e 8d38 6f3d
00000050: 47d1 de3b 99ce 0a3e f96c 033d b8dd 0b3d
00000060: 33de 19be 7a29 d7bd 2796 17bd 1160 3abe
00000070: 387f 393e 86b6 f03d 531e 69bc c953 ddbd
00000080: d467 f7bd bbfa 22bc 5c18 2a3e 3c54 5eba
00000090: fbf1 1dbe c366 70bd 3d15 793c 9395 8dbc
000000a0: 1381 023e 0899 c9bc 010d 49bb 7370 303e
000000b0: db07 a23d 8768 2fbd 4c25 ebbc 6720 aabd
000000c0: b2c9 ac3d 9195 afbc 3802 aa3c 562d 193e
000000d0: 8921 233b ffed ab3b 5343 72bc 4843 043d
000000e0: 107e 41bd 7a1b 803d 3440 9d3d 2b92 853d
000000f0: b372 953d 61d1 413e f505 42bc 404e f53c
00000100: 6128 14be 8149 253e 2bc5 9abd 699b 25be
00000110: 0e44 87bc 844e 9b3c 484d e4bd 6fac 3d3e
00000120: 6633 883c 86bf 37be c6c0 1f3c 245d b03d
00000130: 81bf 313e f113 adbc ad91 443e 0213 8f3d
00000140: 9bc9 e4bd 85bb 26bd e398 27be e869 35bd
00000150: 4236 673c 8839 043e 27c9 19bd bb40 a8bc
00000160: f42d 87bb e3d8 1e3d 3166 b93d e231 2e3e
00000170: b29f 0dbe f996 7b3d 7bf3 e33d 82bc 0d3e
00000180: fd20 3d3d ff55 7e3c 849a 1a3e 724a 0bbe
00000190: 5d8c c23d 5e3a e5bb 30e5 20bd c75b 78bd
000001a0: 0ddd 113e 15b0 02be 4e6d f8bd af89 c7bd
000001b0: 2162 cf3d 9efd 76bd d2f8 adbc 60d2 e33c
000001c0: afef 463a e356 933d 0113 223d f10a 8b3d
000001d0: 19f3 a83c fcbd c4bd 09ca c3bc da64 0fbe
000001e0: de05 4a3d 8064 b63d 121d 1cbd 97ee 22bc
000001f0: d1b4 a43d 327e e33c 7d47 883d b033 04bd
00000200: 831e 193e 179a 133e 6b13 39be dbf6 463c
00000210: b9f0 48bd 40ef 05be 16ba 543d cfe5 033d
00000220: 07f4 3dbe 8ea5 d9bd 24ac 78bc f8d6 7bbd
00000230: 3e9b 183e 483e 323d 2e13 1bbe 6817 ff3d
00000240: 99a8 ddbc 834d f2bd bcb2 e0bd c2e8 a33c
00000250: 93a4 a9bd 66c6 6d3c 9a5c 4fbd 6b31 3e3e
00000260: e41a 833d 523b adbd 4e11 ef3d db16 e2bc
00000270: 3e71 b73c f27a 533d 36af 5fbe 4072 12be
00000280: bec8 923d 92c8 093e 03d6 2a3e eca3 d0bc
00000290: 4f42 37be 4682 033e 7941 8ebc cf9b 2f3d
000002a0: 0501 a13a afd8 c2bd cd72 1fbd 416d ecbc
000002b0: 3217 e13d eeda 863b 4332 ebbd 7066 983c
000002c0: 1ca0 453e 0220 12be ffa8 c8b8 3eb1 363e
000002d0: 0b06 4fbc 8321 0bbe 28ad 8e3d 913c 073e
000002e0: e49d ac3c 267d 7abd 8c39 dfbc ca4b fc3c
000002f0: aebc 443d 3e23 ac3c c583 4a3e 72b3 593d
00000300: faaa 08be f895 ab3d 2761 6a3e 4380 033e
00000310: 9ab4 b63d d702 fa3d da77 27be 0ea2 5fbe
00000320: c88f c73d e1e1 b5bd a589 8d3d fb81 a33d
00000330: 9c19 bebd 691b 9ebd 0a68 b8bd db32 5fbd
00000340: da27 d8bb f0c2 b1bd aeb6 e1bc 6ae4 d23d
00000350: 320a b1bd ea2d fb3d a4d5 c23d 684a 46bc
00000360: f12a bb3b 415b 523d 6ea8 0fbc 8b78 ecbd
00000370: 8d2d 52be 40ee 89bd 6882 c13d 5136 213d
00000380: fa69 8f3c bdf5 cdbd 16e2 223d 64e1 893c
00000390: 2b0f c33d c0fb 003d ce0f ecbd f19c c6bd
000003a0: 1bcc b8bd 3305 ac3d cad0 133e 6d95 d5bc
000003b0: e5cd 19be a9df 43be 117e cabd b1ba a33a
000003c0: dc19 3b3e edc0 38bc 7c08 d23c 9988 ef3d
000003d0: ddc4 efbd 986c 4d3d 2924 523d 2d7f de3c
000003e0: fd2d f63c b186 513d a796 3b3c 2949 f0bc
000003f0: 67d6 313b a23b 66bd 8fcf fe3b 376d b33c

lstm.bias_ih_l1 f4 [200]
0.010368111 -0.1175925 0.12043176 -0.13689215 -0.112167194 -0.19003855 -0.24702804 -0.20598812
0.0153508475 -0.21527968 0.036815397 -0.05128256 0.11606773 -0.08074093 0.0152021125 0.06175339
-0.16452903 0.05701903 0.03650002 -0.13011102 -0.044520568 -0.027398126 -0.012600542 -0.19919378
-0.008229043 -0.029942248 -0.14391388 -0.07547103 -0.18606973 0.07459511 -0.07116178 -0.094589666
0.06784717 -0.06210439 0.008591105 0.019946957 -0.09484052 -0.0047943234 0.09224364 -0.047412597
0.02422233 -0.0834098 -0.16322951 -0.041379847 -0.15212993 -0.1463203 -0.012174 -0.027905487
-0.018731618 0.10713296 0.07379755 0.017687334 -0.1305196 -0.0759353 0.084723756 -0.036387652
-0.14651643 -0.054883413 -0.17935099 0.03856557 0.07649481 -0.12912469 -0.11485679 -0.16084495
-0.1725386 -0.19387934 -0.068189144 0.018704042 0.041375395 -0.067514315 -0.16263539 -0.15185678
-0.07923448 -0.14754769 0.015651619 -0.1530773 -0.11404558 -0.13180697 -0.20907302 -0.1526387
0.050281037 -0.095540196 -0.10170609 0.031660765 0.093751945 -0.017263807 -0.14754228 -0.1256347
-0.034630403 -0.121963866 -0.01813653 -0.05921259 -0.11887212 0.038665768 0.018172782 -0.0010182713
-0.14838406 0.062653 -0.16757892 0.07258474 -0.14400804 0.049172215 -0.0960262 -0.15144134
-0.017586235 0.13418204 0.13715525 -0.061836254 0.051890537 0.09441738 -0.04708271 0.0108734295
-0.08222308 0.009388717 0.07329087 -0.12254053 0.0003799824 -0.023251938 -0.10195955 0.0913693
-0.044314854 -0.024219045 -0.06908631 -0.004528267 -0.08180534 -0.08247772 0.103220604 -0.04661409
-0.045737706 -0.08636332 -0.03119776 -0.05676429 0.0764369 -0.072876416 -0.09031495 -0.10011492
0.0033294337 -0.08351211 -0.10854158 -0.0488179 -0.1471439 -0.053291727 0.06661028 -0.08410635
0.007872437 -0.06947141 0.13255665 -0.14684619 0.003953995 0.11455811 -0.08051993 -0.05592475
0.04579881 -0.21381302 -0.02021428 -0.0019215333 -0.12215095 -0.07897475 -0.03178209 -0.0027818088
0.0005447416 0.03396478 0.05120217 -0.041293256 -0.13888331 0.05550431 -0.085522234 -0.10190579
-0.13675463 -0.085045755 -0.0060302475 -0.15476188 0.08089139 -0.10662989 0.00071241683 -0.016904768
-0.09625815 0.042787246 0.024733841 -0.12541696 -0.13349262 -0.074399665 -0.18770546 -0.02045704
0.13799734 -0.094085515 0.026783135 -0.11518155 -0.035443004 -0.09397406 0.06968856 0.0060688686
0.019649835 0.0034820288 0.055190347 -0.19350499 -0.11075385 -0.10543427 -0.23118234 0.058510616
00000000: 02df 293c 56d4 f0bd eda4 f63d 752d 0cbe
00000010: eab7 e5bd 7799 42be ebf4 7cbe 8dee 52be
00000020: 1f82 7b3c 4772 5cbe becb 163d a90d 52bd
00000030: ebb4 ed3d 805b a5bd 4812 793c 1ff1 7c3d
00000040: 4c7a 28be c98c 693d 0c81 153d d33b 05be
00000050: 335b 36bd 0972 e0bc 8172 4ebc 74f9 4bbe
00000060: 1cd3 06bc 7249 f5bc 295e 13be 8e90 9abd
00000070: 1089 3ebe 52c5 983d 44bd 91bd 3ab8 c1bd
00000080: 75f3 8a3d 2c61 7ebd b5c1 0c3c cd67 a33c
00000090: bf3b c2bd b319 9dbb 3cea bc3d b633 42bd
000000a0: e86d c63c c2d2 aabd a325 27be ea7d 29bd
000000b0: f3c7 1bbe fdd4 15be 7575 47bc 0c9a e4bc
000000c0: 0d73 99bc 8668 db3d 2b23 973d 07e5 903c
000000d0: eea6 05be f783 9bbd a683 ad3d 380b 15bd
000000e0: 6708 16be 6ecd 60bd c9a7 37be eef6 1d3d
000000f0: 50a9 9c3d 4339 04be 093a ebbd 8ab4 24be
00000100: f5ad 30be 4e88 46be c0a6 8bbd 3839 993c
00000110: 3f79 293d f244 8abd e489 26be 5880 1bbe
00000120: b045 a2bd be16 17be d337 803c 4cc0 1cbe
00000130: bb90 e9bd 68f8 06be 3d17 56be 524d 1cbe
00000140: 7df3 4d3d 94aa c3bd 484b d0bd b8ae 013d
00000150: 0501 c03d d46c 8dbc 5315 17be 62a6 00be
00000160: 9cd8 0dbd 31c8 f9bd 0f93 94bc e788 72bd
00000170: 3a73 f3bd ff5f 1e3d 16df 943c 8477 85ba
00000180: fef1 17be 3750 803d cf99 2bbe 4fa7 943d
00000190: d876 13be ce68 493d 62a9 c4bd 7013 1bbe
000001a0: 0211 90bc 0467 093e 6d72 0c3e 0348 7dbd
000001b0: 2c8b 543d e65d c13d cdd9 40bd 7826 323c
000001c0: 9364 a8bd 22d3 193c 8619 963d 88f6 fabd
000001d0: 6038 c739 d97a bebc 2bd0 d0bd d41f bb3d
000001e0: 7e83 35bd 0567 c6bc 207d 8dbd db61 94bb
000001f0: 8f89 a7bd 14ea a8bd 5365 d33d 6bee 3ebd
00000200: 7657 3bbd 41df b0bd 7292 ffbc ac81 68bd
00000210: f38a 9c3d 3b40 95bd 0bf7 b8bd 0d09 cdbd
00000220: a132 5a3b 6608 abbd 0c4b debd 47f5 47bd
00000230: e4ac 16be 6d48 5abd f86a 883d f33f acbd
00000240: 65fb 003c 0747 8ebd eebc 073e d95e 16be
00000250: 8490 813b 719d ea3d a2e7 a4bd 5a11 65bd
00000260: 8897 3b3d cdf1 5abe 6b98 a5bc f5db fbba
00000270: 472a fabd 84bd a1bd f02d 02bd 024f 36bb
00000280: fdcc 0e3a a71e 0b3d 5eb9 513d 1e23 29bd
00000290: 6d37 0ebe 7d58 633d 4826 afbd fcb3 d0bd
000002a0: 6809 0cbe 782c aebd 6299 c5bb e679 1ebe
000002b0: 63aa a53d c660 dabd 7cc1 3a3a de7b 8abc
000002c0: fe22 c5bd ae41 2f3d a09e ca3c 4e6d 00be
000002d0: 4ab2 08be da5e 98bd dc35 40be 8695 a7bc
000002e0: 2d4f 0d3e e8af c0bd 4e68 db3c 4ee4 ebbd
000002f0: af2c 11bd 7975 c0bd e0b8 8e3d 5cdd c63b
00000300: b1f8 a03c c032 643b 460f 623d 2c26 46be
00000310: ead2 e2bd eced d7bd 10bb 6cbe d4a8 6f3d

lstm.bias_hh_l1 f4 [200]
0.022257613 0.059530746 -0.000838476 -0.06459125 0.114144064 -0.15012412 -0.037753224 -0.07806538
-0.038527187 -0.032090317 -0.017570699 -0.1388638 -0.09997889 -0.03840263 -0.07830781 -0.095773295
0.07635045 -0.12631184 0.039727807 -0.18103038 -0.12761979 -0.19630612 -0.01427825 -0.01131234
-0.12678938 -0.013158508 -0.11271774 -0.071570024 0.008626199 -0.04767607 -0.04435764 -0.060783446
0.05607375 -0.050060593 -0.08298839 0.026019072 -0.20502943 0.036074437 -0.0886237 0.029313523
0.0460973 0.012533377 0.078907415 0.08045388 -0.075686336 -0.07458191 -0.051187195 -0.009547904
-0.13577686 -0.026942508 0.096644126 -0.088956624 -0.11480463 -0.16724215 -0.06527634 -0.03665395
-0.14269927 0.044546552 -0.19468273 -0.09238762 -0.07790527 -0.05866887 -0.10231571 -0.060070325
-0.11687723 -0.15237908 -0.17175288 -0.020511556 0.020795286 -0.050992936 -0.009179876 -0.001166388
-0.047430757 0.0064024245 -0.08107218 0.06560976 -0.09114928 0.019365765 -0.09082911 -0.08242174
-0.011373766 -0.1106226 -0.033460733 0.0036776604 0.07523025 -0.13909407 0.0015815283 -0.13622816
-0.009432672 -0.12652943 -0.15745223 0.047654077 0.11488247 0.10535275 -0.07494327 -0.0025694817
0.0028428072 0.13985978 -0.011732016 -0.1028953 -0.01910225 -0.019862538 -0.07397189 0.045364074
-0.0032356232 -0.074292034 -0.0020460144 0.014459675 -0.020441992 -0.069683835 0.0024407033 -0.09550536
-0.09721374 -0.08961378 0.07639088 0.09575734 0.032053012 0.0857226 -0.0645508 -0.051088896
0.06586356 -0.027329827 -0.11909476 0.12778315 0.10649587 0.13783748 -0.15822345 0.1269391
0.051481336 0.11248141 0.10782911 0.14736979 -0.029791974 -0.0020558948 -0.1528695 0.054856308
0.09723986 0.15051836 -0.014478673 -0.05444862 0.10557151 -0.043966755 -0.03839733 -0.13535683
-0.05890271 0.064929515 -0.07319855 -0.1238568 0.01828984 0.020440307 0.059914593 -0.07649418
0.11705481 -0.089081965 0.0010744723 -0.058211155 -0.0505247 -0.18722914 -0.18787682 -0.1313395
0.03598739 -0.08858021 0.0063614044 -0.057366766 -0.004450715 -0.14425224 -0.12471738 -0.078348175
-0.03993998 -0.0018956645 -0.07200451 -0.0075223283 0.047820974 0.024584107 -0.19520362 -0.15743898
-0.12694687 -0.17314434 -0.18759507 0.02096611 0.054218307 -0.069306254 -0.09177391 0.0075324103
0.101321295 0.027841238 -0.17841768 -0.012599558 -0.0806972 -0.22931542 0.0019092815 -0.05369917
-0.035569083 -0.10736171 -0.029690675 -0.105439104 0.036927063 0.11569229 0.033481017 -0.08068108
00000000: 9955 b63c 83d6 733d 2ccd 5bba 6b48 84bd
00000010: 5dc4 e93d 23ba 19be 20a3 1abd bee0 9fbd
00000020: afce 1dbd 2371 03bd 6df0 8fbc 5032 0ebe
00000030: bbc1 ccbd 134c 1dbd d85f a0bd ca24 c4bd
00000040: a05d 9c3d e457 01be a0b9 223d 0760 39be
00000050: c3ae 02be 7904 49be 52ef 69bc 6557 39bc
00000060: 13d5 01be c896 57bc 8fd8 e6bd 4e93 92bd
00000070: e754 0d3c fc47 43bd 5bb0 35bd 10f8 78bd
00000080: 97ad 653d 560c 4dbd d1f5 a9bd f325 d53c
00000090: 3cf3 51be cac2 133d 5880 b5bd ea22 f03c
000000a0: 86d0 3c3d cb58 4d3c 369a a13d 01c5 a43d
000000b0: 7001 9bbd 67be 98bd aaa9 51bd d06e 1cbc
000000c0: 1709 0bbe 89b6 dcbc 5bed c53d e42e b6bd
000000d0: b11e ebbd 8741 2bbe 9aaf 85bd 7422 16bd
000000e0: c21f 12be 7276 363d e95a 47be b835 bdbd
000000f0: cc8c 9fbd c54e 70bd e68a d1bd 4d0c 76bd
00000100: 545d efbd 4309 1cbe fddf 2fbe da07 a8bc
00000110: e05a aa3c f8dd 50bd 3167 16bc 7de1 98ba
00000120: c146 42bd 6ecb d13b 2c09 a6bd 695e 863d
00000130: 79ac babd f4a4 9e3c 9d04 babd bbcc a8bd
00000140: 0859 3abc 1a8e e2bd 1f0e 09bd e704 713b
00000150: 5112 9a3d ad6e 0ebe 494b cf3a 657f 0bbe
00000160: 7e8b 1abc ee90 01be 283b 21be ec30 433d
00000170: 8047 eb3d 2fc3 d73d db7b 99bd c064 28bb
00000180: 644e 3a3b 6737 0f3e a437 40bc c5ba d2bd
00000190: 527c 9cbc c3b6 a2bc 937e 97bd aecf 393d
000001a0: c00c 54bb 6c26 98bd 6d16 06bb 46e8 6c3c
000001b0: f775 a7bc 66b6 8ebd 35f4 1f3b 5098 c3bd
000001c0: ff17 c7bd 6e87 b7bd d272 9c3d 6d1c c43d
000001d0: 054a 033d 558f af3d 3633 84bd 9742 51bd
000001e0: 79e3 863d cde2 dfbc f4e7 f3bd 96d9 023e
000001f0: 821a da3d 4525 0d3e 5405 22be 53fc 013e
00000200: 18de 523d a75c e63d 82d5 dc3d 1be8 163e
00000210: 4c0e f4bc 31bc 06bb d289 1cbe 02b1 603d
00000220: b125 c73d 7c21 1a3e f537 6dbc 8405 5fbd
00000230: e035 d83d 7c16 34bd 8546 1dbd fb9a 0abe
00000240: f843 71bd c4f9 843d 1fe9 95bd a2a8 fdbd
00000250: 93d4 953c 6e72 a73c 0169 753d fba8 9cbd
00000260: 6fba ef3d 9b70 b6bd 4fd5 8c3a d26e 6ebd
00000270: fdf2 4ebd ffb8 3fbe c862 40be dd7d 06be
00000280: 8367 133d 8b69 b5bd 5473 d03b 6af9 6abd
00000290: 4ed7 91bb dcb6 13be d36b ffbd 0275 a0bd
000002a0: 1b98 23bd f277 f8ba 1a77 93bd dd7d f6bb
000002b0: eddf 433d 9c64 c93c 75e3 47be af37 21be
000002c0: 5cfe 01be c04c 31be ec18 40be 1fc1 ab3c
000002d0: 0414 5e3d 70f0 8dbd f6f3 bbbd 70d2 f63b
000002e0: 8a81 cf3d 4f13 e43c 20b3 36be 606e 4ebc
000002f0: 9344 a5bd a9d1 6abe db40 fa3a a9f3 5bbd
00000300: e3b0 11bd 75e0 dbbd dc39 f3bc 75f0 d7bd
00000310: d540 173d 14f0 ec3d 6423 093d 1f3c a5bd

fc.weight f4 [1, 50]
-0.043371584 -0.0008908977 -0.10292795 -0.03829828 -0.1336526 0.025046512 0.024592007 -0.015883187
0.0014846531 0.02142952 -0.092672095 -0.009647386 -0.10331897 -0.060021296 -0.07905353 -0.0067619104
0.07518061 -0.022063551 -0.088020965 0.05365016 -0.05242508 -0.024414528 -0.111891724 0.08000923
-0.057934996 0.0099567715 -0.08347861 0.049812306 0.0033917043 0.00993811 0.022203783 0.09029963
0.06495675 0.020855108 -0.10909327 -0.0056529758 0.03534221 0.0021711176 -0.14432524 -0.031094847
-0.05628951 0.003184862 0.08386225 -0.07707279 0.02437084 -0.03940397 -0.014464784 -0.07975605
0.029109262 0.07625297
00000000: 67a6 31bd 228b 69ba e4cb d2bd a8de 1cbd
00000010: 3adc 08be 582e cd3c 2d75 c93c 751d 82bc
00000020: b198 c23a f68c af3c deca bdbd 1210 1ebc
00000030: e598 d3bd e4d8 75bd d1e6 a1bd 0493 ddbb
00000040: 4bf8 993d 9fbe b4bc 5644 b4bd 45c0 5b3d
00000050: aebb 56bd fa00 c8bc 7d27 e5bd e1db a33d
00000060: 3f4d 6dbd ba21 233c d5f6 aabd fd07 4c3d
00000070: 5b47 5e3b 74d3 223c b5e4 b53c 03ef b83d
00000080: 0b08 853d 55d8 aa3c 4b6c dfbd 993c b9bb
00000090: fec2 103d 4f49 0e3b ffc9 13be 9fba febc
000000a0: d48f 66bd 1eb9 503b f9bf ab3d 57d8 9dbd
000000b0: 5ba5 c73c 0f66 21bd b4fd 6cbc 2457 a3bd
000000c0: 8c76 ee3c 842a 9c3d
